{"format": "torch", "nodes": [{"name": "patch_embed", "id": 3025788099840, "class_name": "PatchEmbed(\n  (proj): Conv2d(3, 384, kernel_size=(4, 4), stride=(4, 4))\n)", "parameters": [["proj.weight", [384, 3, 4, 4]], ["proj.bias", [384]]], "output_shape": [[128, 64, 384]], "num_parameters": [18432, 384]}, {"name": "transformer", "id": 3025788099456, "class_name": "Performer(\n  (encoder): TransformerEncoder(\n    (layers): ModuleList(\n      (0): TransformerEncoderLayer(\n        (self_attn): MultiheadAttentionPerformer(\n          (out_proj): _LinearWithBias(in_features=384, out_features=384, bias=True)\n        )\n        (linear1): Linear(in_features=384, out_features=1536, bias=True)\n        (dropout): Dropout(p=0.1, inplace=False)\n        (linear2): Linear(in_features=1536, out_features=384, bias=True)\n        (norm1): LayerNorm((384,), eps=1e-05, elementwise_affine=True)\n        (norm2): LayerNorm((384,), eps=1e-05, elementwise_affine=True)\n        (dropout1): Dropout(p=0.1, inplace=False)\n        (dropout2): Dropout(p=0.1, inplace=False)\n      )\n      (1): TransformerEncoderLayer(\n        (self_attn): MultiheadAttentionPerformer(\n          (out_proj): _LinearWithBias(in_features=384, out_features=384, bias=True)\n        )\n        (linear1): Linear(in_features=384, out_features=1536, bias=True)\n        (dropout): Dropout(p=0.1, inplace=False)\n        (linear2): Linear(in_features=1536, out_features=384, bias=True)\n        (norm1): LayerNorm((384,), eps=1e-05, elementwise_affine=True)\n        (norm2): LayerNorm((384,), eps=1e-05, elementwise_affine=True)\n        (dropout1): Dropout(p=0.1, inplace=False)\n        (dropout2): Dropout(p=0.1, inplace=False)\n      )\n      (2): TransformerEncoderLayer(\n        (self_attn): MultiheadAttentionPerformer(\n          (out_proj): _LinearWithBias(in_features=384, out_features=384, bias=True)\n        )\n        (linear1): Linear(in_features=384, out_features=1536, bias=True)\n        (dropout): Dropout(p=0.1, inplace=False)\n        (linear2): Linear(in_features=1536, out_features=384, bias=True)\n        (norm1): LayerNorm((384,), eps=1e-05, elementwise_affine=True)\n        (norm2): LayerNorm((384,), eps=1e-05, elementwise_affine=True)\n        (dropout1): Dropout(p=0.1, inplace=False)\n        (dropout2): Dropout(p=0.1, inplace=False)\n      )\n      (3): TransformerEncoderLayer(\n        (self_attn): MultiheadAttentionPerformer(\n          (out_proj): _LinearWithBias(in_features=384, out_features=384, bias=True)\n        )\n        (linear1): Linear(in_features=384, out_features=1536, bias=True)\n        (dropout): Dropout(p=0.1, inplace=False)\n        (linear2): Linear(in_features=1536, out_features=384, bias=True)\n        (norm1): LayerNorm((384,), eps=1e-05, elementwise_affine=True)\n        (norm2): LayerNorm((384,), eps=1e-05, elementwise_affine=True)\n        (dropout1): Dropout(p=0.1, inplace=False)\n        (dropout2): Dropout(p=0.1, inplace=False)\n      )\n    )\n    (norm): LayerNorm((384,), eps=1e-05, elementwise_affine=True)\n  )\n)", "parameters": [["encoder.layers.0.self_attn.in_proj_weight", [1152, 384]], ["encoder.layers.0.self_attn.in_proj_bias", [1152]], ["encoder.layers.0.self_attn.out_proj.weight", [384, 384]], ["encoder.layers.0.self_attn.out_proj.bias", [384]], ["encoder.layers.0.linear1.weight", [1536, 384]], ["encoder.layers.0.linear1.bias", [1536]], ["encoder.la
…
